Pendulum_model.pth (torch, 8028 bytes, 3 tensors)

weight f4 [256, 3]
-0.30781963 -0.50484 0.4158202 -0.17556731 -0.05084979 0.23326981 -0.05275764 -0.22955154
0.3158959 -0.17635567 0.41441983 -0.27570614 0.022282682 0.061356988 -0.45395526 0.035258792
-0.46199334 -0.43379685 -0.44293872 0.5293242 -0.34855208 -0.4104079 -0.48604652 0.19758639
-0.2536506 0.09269699 -0.37016553 0.31463343 -0.26329213 0.39837182 -0.14585724 0.19813149
-0.2807379 -0.0021879675 0.23615634 0.3590595 0.15042585 0.5758503 -0.12859769 -0.42940584
0.1430324 -0.42839146 0.028712358 -0.1475731 -0.53385067 0.4439931 0.45349038 -0.4841373
-0.20603995 -0.4089581 -0.5012858 0.28153715 -0.07554263 -0.0024386987 0.104424804 -0.3834596
-0.5599441 0.513772 0.19828351 -0.34460825 -0.5788434 -0.024383884 -0.12720816 -0.06201136
0.3984176 0.008975818 -0.5187335 0.3932571 0.32211718 0.5175503 0.19038072 -0.22172578
-0.054919623 -0.2815694 -0.4243489 0.4935762 -0.27456582 -0.51962376 -0.09682002 -0.4042133
0.40319303 0.2610759 0.12664206 -0.19237505 0.002135763 -0.15789258 -0.0012977952 -0.12742664
-0.45958558 -0.34999862 -0.30133244 -0.52311105 -0.5424424 -0.3875651 0.5058216 0.19247147
0.28149414 -0.10591983 -0.2669369 -0.34595057 0.045200102 -0.5448498 -0.40027177 0.03468547
-0.22943334 0.034233797 -0.019333227 -0.3759835 -0.4293664 0.5307828 -0.16281791 0.3003045
-0.42318934 -0.11352602 -0.45657122 -0.0001294318 0.5173506 -0.44562623 0.20201418 0.5308056
0.25586653 0.41768768 0.16497847 -0.00092285 -0.24671534 -0.17254904 0.49996388 -0.45676756
-0.3162015 0.052414455 -0.2741086 -0.1893057 0.10351609 0.0594283 0.48781776 -0.30952924
-0.14524308 -0.26891586 -0.04555024 -0.2746615 -0.26539817 0.46236324 -0.19865552 -0.4182523
-0.44450644 -0.10926767 0.23368175 -0.4595269 0.08170833 -0.2997147 0.5394621 0.5593202
0.54699785 0.18570559 -0.13283275 -0.27301347 -0.002427197 -0.0334811 -0.3015517 -0.26086536
-0.54765034 0.17685524 0.37743512 -0.53921473 0.3184099 -0.07713109 0.5307182 0.27485085
-0.03052363 -0.33425006 0.09099012 -0.4972883 -0.2678543 0.088761814 0.24274895 0.08231191
0.003744396 0.5597748 0.5262028 0.30600205 -0.41148198 0.23042476 -0.095753916 0.10180484
-0.12202829 0.09437665 0.23571464 -0.26532498 0.17131479 0.50452405 0.55705 -0.013328879
0.48604995 0.14186002 0.028044367 0.50606585 -0.21015602 -0.4856585 -0.31900293 0.397565
0.0012122284 0.5227833 -0.11432123 -0.39111522 0.43325248 -0.51849335 0.37229285 -0.38497943
-0.50177103 0.17257589 0.16104886 -0.33382425 0.32522556 -0.48853832 -0.54931873 -0.07989637
-0.23826277 -0.339722 -0.5425901 0.14397456 -0.40030187 -0.38974503 -0.17212316 -0.3529081
0.40720028 0.027823482 -0.5367883 0.387121 0.19834001 -0.49058342 0.06357085 0.38827133
-0.24294195 -0.52621 -0.0021645133 0.04558022 0.24329697 -0.23753445 0.31805298 0.5358832
-0.4420977 0.32594785 -0.119020246 -0.5203206 0.3568385 -0.36545074 -0.4205599 0.2966493
-0.09700705 -0.575698 0.061509732 -0.10073276 -0.36144614 -0.57460684 0.16321373 -0.24819492
00000000: 899a 9dbe 323d 01bf 63e6 d43e ebc7 33be
00000010: df47 50bd 48de 6e3e 6518 58bd 8f0f 6bbe
00000020: 1bbd a13e 9596 34be d62e d43e 5b29 8dbe
00000030: 2c8a b63c 7751 7b3d d36c e8be 866b 103d
00000040: 648a ecbe 9f1a debe ddc8 e2be ca81 073f
00000050: 6b75 b2be fc20 d2be 17db f8be 1654 4a3e
00000060: 7ede 81be ebd7 bd3d 5686 bdbe a217 a13e
00000070: 3ace 86be 64f7 cb3e 9a5b 15be fbe2 4a3e
00000080: e1bc 8fbe 0164 0fbb f8d2 713e a6d6 b73e
00000090: 3c09 1a3e ed6a 133f 1daf 03be 15db dbbe
000000a0: 1677 123e 2056 dbbe 2e36 eb3c 671d 17be
000000b0: 70aa 08bf 1053 e33e e42f e83e d8e0 f7be
000000c0: 23fc 52be f562 d1be 4454 00bf a325 903e
000000d0: 18b6 9abd 93d2 1fbb acdc d53d d154 c4be
000000e0: 7f58 0fbf 9086 033f d50a 4b3e 7e70 b0be
000000f0: 152f 14bf b6c0 c7bc db42 02be a0ff 7dbd
00000100: 64fd cb3e 4f0f 133c b8cb 04bf ff58 c93e
00000110: 8bec a43e 2d7e 043f 2af3 423e 150c 63be
00000120: 66f3 60bd dd29 90be 4244 d9be 05b6 fc3e
00000130: e493 8cbe 1006 05bf 9349 c6bd 0cf5 cebe
00000140: 516f ce3e beab 853e 75ae 013e f7fd 44be
00000150: 28f8 0b3b 98ae 21be c81a aaba 217c 02be
00000160: cd4e ebbe 0533 b3be 3f48 9abe 9bea 05bf
00000170: 81dd 0abf ef6e c6be 867d 013f 3e17 453e
00000180: 0020 903e 7fec d8bd f4ab 88be 6f20 b1be
00000190: be23 393d 477b 0bbf 6cf0 ccbe 5a12 0e3d
000001a0: 93f0 6abe bd38 0c3d b760 9ebc e980 c0be
000001b0: ead5 dbbe 62e1 073f bdb9 26be 83c1 993e
000001c0: 46ac d8be 5480 e8bd b4c3 e9be 16b8 07b9
000001d0: 1771 043f 1f29 e4be cedc 4e3e e0e2 073f
000001e0: f000 833e 29db d53e 1ef0 283e 6aeb 71ba
000001f0: f2a2 7cbe b2b0 30be 44fb ff3e 70dd e9be
00000200: 2ae5 a1be 8ab0 563d f657 8cbe 5ad9 41be
00000210: 3e00 d43d 176b 733d 40c3 f93e 9e7a 9ebe
00000220: 9aba 14be 57af 89be e392 3abd 6fa0 8cbe
00000230: 45e2 87be e0ba ec3e 5a6c 4bbe 2a25 d6be
00000240: 5996 e3be bac7 dfbd 454a 6f3e 1c47 ebbe
00000250: b256 a73d 3574 99be 301a 0a3f 9c2f 0f3f
00000260: 0d08 0c3f 9b29 3e3e 4f05 08be 6cc8 8bbe
00000270: 9c11 1fbb 7a23 09bd fc64 9abe 2590 85be
00000280: d032 0cbf 8a19 353e 2d3f c13e fa09 0abf
00000290: 9f06 a33e e8f6 9dbd 26dd 073f 40b9 8c3e
000002a0: b10c fabc d322 abbe 0759 ba3d 929c febe
000002b0: 3324 89be c1c8 b53d 2e93 783e 2693 a83d
000002c0: 8a64 753b 674d 0f3f 3ab5 063f 4dac 9c3e
000002d0: c4ad d2be 78f4 6b3e a11a c4bd 0e7f d03d
000002e0: f8e9 f9bd 8c48 c13d 2e5f 713e add8 87be
000002f0: 256d 2f3e 7d28 013f d49a 0e3f 5f61 5abc
00000300: 8adb f83e c143 113e 4dbd e53c 888d 013f
00000310: 2433 57be 3ba8 f8be 5a54 a3be a48d cb3e
00000320: a3e3 9e3a 20d5 053f 4021 eabd 4140 c8be
00000330: 45d3 dd3e fbbb 04bf 2b9d be3e 061c c5be
00000340: 1174 00bf bcb7 303e fee9 243e 03eb aabe
00000350: f783 a63e b221 fabe 27a0 0cbf b5a0 a3bd
00000360: 28fb 73be 0bf0 adbe 2fe7 0abf 116e 133e
00000370: 5ef4 ccbe a98c c7be 0e41 30be 5fb0 b4be
00000380: 8e7c d03e 12ee e33c f56a 09bf b934 c63e
00000390: a519 4b3e c02d fbbe 6f31 823d 80cb c63e
000003a0: c6c5 78be b3b5 06bf 82da 0dbb 53b2 3a3d
000003b0: d722 793e 3b3c 73be d7d7 a23e a42f 093f
000003c0: a15a e2be a3e2 a63e e3c0 f3bd bb33 05bf
000003d0: 89b3 b63e 5c1c bbbe a153 d7be 6be2 973e
000003e0: a2ab c6bd f260 13bf a1f1 7b3d fa4c cebd
000003f0: 780f b9be 6f19 13bf 8021 273e cf26 7ebe

bias f4 [256]
0.302477 0.39603347 -0.5268856 0.32262623 0.32642072 0.1677336 -0.46528095 0.27539027
-0.48113537 0.5376121 -0.54371953 0.07687166 -0.48561597 0.4346432 -0.21246378 0.14950602
0.12448729 0.046502896 0.03574772 0.43606207 -0.5009517 0.31478345 0.029033657 -0.18225484
0.44386575 -0.3068073 -0.24644092 -0.51409775 0.3517152 0.27834126 -0.22778696 -0.033128537
-0.17164503 -0.08361465 -0.3750963 0.2396836 -0.010927081 -0.56724775 0.29261538 -0.36261976
-0.098434985 0.042420056 0.016366215 0.122022726 -0.103606254 -0.07012519 0.44907543 -0.57533073
-0.4268648 -0.25203907 -0.31203055 -0.30101943 0.53226495 -0.20432338 -0.050836734 -0.44111794
-0.23673715 -0.27091205 0.17512934 0.36735347 -0.2703389 0.23723999 0.37228528 0.3105453
-0.25433633 0.08634923 0.39805964 -0.3830379 -0.13221404 0.14739303 -0.2991023 -0.015091283
0.06801751 0.42642534 0.07207104 -0.20068014 0.019213682 0.32125917 0.19125068 0.2614239
0.5640026 0.20964932 -0.04807851 0.12949272 0.47092357 -0.5546849 0.15431915 -0.3944366
-0.36425287 -0.07528925 -0.32014835 -0.16258135 0.365077 0.4791476 0.21107239 -0.3519436
0.43661597 -0.09791123 0.0047637783 -0.01630192 -0.0430065 -0.35768563 -0.20630148 -0.5635003
-0.19998257 0.3313545 -0.35045996 -0.28836423 -0.39229706 0.03244228 0.027652597 0.24524888
-0.23822147 0.4409519 -0.38000563 0.09923789 -0.41702068 0.5115699 -0.48910746 0.490846
0.2714272 -0.45353296 -0.026605876 -0.16920397 -0.4490002 -0.12895729 0.2632977 -0.22611877
0.4825459 -0.23849165 -0.5278725 -0.48474944 0.25560775 -0.42192715 -0.28202686 -0.23727147
0.3207393 -0.42190042 0.1580548 0.48629928 0.367558 0.42953753 0.11283344 0.25475407
-0.4762584 0.3560218 0.35245368 -0.3220616 0.103649855 0.18589716 -0.046284564 -0.26844126
0.09234326 0.15934631 -0.4997771 -0.5142871 0.247278 0.18164322 0.48045543 -0.16866288
0.3952062 0.27728862 -0.5433242 0.4049441 0.33291742 0.2230539 -0.05709324 0.4648186
-0.071184486 -0.3251454 -0.30189636 -0.5117321 -0.3352954 0.2505671 -0.013162088 0.21673287
0.28615156 -0.39596388 0.009339813 0.5233241 -0.16845421 -0.51985574 0.306758 0.33520898
-0.2670509 0.081700236 0.574036 -0.36765483 -0.21812993 0.31086746 -0.25916776 -0.27682635
0.4987088 0.23599453 0.27837792 0.3846014 -0.26635572 0.18936338 0.31855112 -0.28952587
0.44002125 -0.4462302 -0.16305783 -0.11616755 0.4482875 -0.066499285 -0.23988904 -0.3963796
0.024424823 0.3465375 -0.09844895 -0.014805648 -0.05149554 0.36587167 -0.19483548 0.5281229
0.18397051 0.4648254 -0.25630984 -0.25001165 -0.1702667 -0.11557912 0.05001385 0.4068939
-0.508104 0.20998996 0.07837342 -0.22642843 -0.4721168 0.26005706 -0.44564888 -0.19485347
-0.21480557 0.17419137 -0.57400626 -0.37854767 0.21508332 0.007355131 0.14112987 0.4306443
-0.44564533 -0.30713573 0.36428475 0.019701485 0.31899345 0.29733422 0.57399774 0.33781445
0.40536666 0.35306063 0.49815992 -0.30973625 0.44473276 0.5155814 0.37565944 0.21693932
00000000: 44de 9a3e e6c4 ca3e fae1 06bf 442f a53e
00000010: 9e20 a73e 5bc2 2b3e 4e39 eebe f4ff 8c3e
00000020: 6057 f6be f2a0 093f 3431 0bbf e46e 9d3d
00000030: a8a2 f8be 8e89 de3e 1b90 59be 1b18 193e
00000040: 31f3 fe3d d279 3e3d 346c 123d 8743 df3e
00000050: 5f3e 00bf 4c2b a13e fed7 ed3c 03a1 3abe
00000060: 5f42 e33e d915 9dbe 025b 7cbe e99b 03bf
00000070: 0414 b43e bf82 8e3e fc40 69be cab1 07bd
00000080: b7c3 2fbe 283e abbd 9f0c c0be 9e6f 753e
00000090: 8007 33bc 2637 11bf afd1 953e 4ca9 b9be
000000a0: 4898 c9bd a7c0 2d3d 7112 863c 0de7 f93d
000000b0: 842f d4bd cc9d 8fbd 37ed e53e e048 13bf
000000c0: 068e dabe 440b 81be 78c2 9fbe 381f 9abe
000000d0: 8442 083f 263a 51be 2e3a 50bd 36da e1be
000000e0: 396b 72be fcb4 8abe 1b55 333e c115 bc3e
000000f0: dc69 8abe 0aef 723e 2d9c be3e cbff 9e3e
00000100: 5f38 82be ddd7 b03d 79ce cb3e 8b1d c4be
00000110: 1e63 07be 33ee 163e f023 99be 6e41 77bc
00000120: c44c 8b3d 6c54 da3e fb99 933d 187f 4dbe
00000130: 0366 9d3c 157c a43e 38d7 433e 5ad9 853e
00000140: 7962 103f 50ae 563e f9ed 44bd bd99 043e
00000150: e51c f13e d4ff 0dbf d705 1e3e 98f3 c9be
00000160: 5a7f babe 4031 9abd 7cea a3be ba7b 26be
00000170: 5feb ba3e d652 f53e 5c23 583e f431 b4be
00000180: 218c df3e af85 c8bd 7819 9c3b 9b8b 85bc
00000190: 9527 30bd 9222 b7be b240 53be 8e41 10bf
000001a0: 3bc8 4cbe 4ca7 a93e 7d6f b3be 7aa4 93be
000001b0: 29db c8be 32e2 043d b387 e23c 8622 7b3e
000001c0: 54f0 73be 73c4 e13e 1990 c2be 3c3d cb3d
000001d0: bc83 d5be 3ff6 023f 4b6c fabe 2b50 fb3e
000001e0: 82f8 8a3e 7935 e8be 91f4 d9bc ce43 2dbe
000001f0: 5be3 e5be 610d 04be f5ce 863e ae8b 67be
00000200: 4210 f73e 2837 74be a722 07bf 1431 f8be
00000210: 05df 823e d606 d8be d365 90be 4bf7 72be
00000220: f137 a43e 5503 d8be 1ed9 213e 38fc f83e
00000230: 9030 bc3e 58ec db3e 3815 e73d 206f 823e
00000240: 24d8 f3be 7d48 b63e cf74 b43e 42e5 a4be
00000250: 6046 d43d d35b 3e3e e294 3dbd 2271 89be
00000260: 771e bd3d ae2b 233e c9e2 ffbe 52a8 03bf
00000270: 7236 7d3e ae00 3a3e 41fe f53e f6b5 2cbe
00000280: 7858 ca3e c6f8 8d3e 4b17 0bbf d554 cf3e
00000290: 2774 aa3e 3e68 643e 9ada 69bd b4fc ed3e
000002a0: 2cc9 91bd 7579 a6be 2992 9abe e000 03bf
000002b0: d7ab abbe 554a 803e cca5 57bc 39ef 5d3e
000002c0: 7582 923e c7bb cabe 0406 193c 91f8 053f
000002d0: 437f 2cbe 4415 05bf 620f 9d3e 83a0 ab3e
000002e0: e5ba 88be 7452 a73d 06f4 123f 413d bcbe
000002f0: 745d 5fbe 052a 9f3e a3b1 84be 2fbc 8dbe
00000300: c356 ff3e 8da8 713e 8d87 8e3e 7aea c43e
00000310: c75f 88be 79e8 413e 2219 a33e bc3c 94be
00000320: 774a e13e 4978 e4be a2f8 26be 41e9 edbd
00000330: f085 e53e c730 88bd 79a5 75be 44f2 cabe
00000340: 9116 c83c 5d6d b13e 9a9f c9bd 6393 72bc
00000350: fdec 52bd 8853 bb3e f482 47be 1033 073f
00000360: c462 3c3e 98fd ed3e 0b3b 83be 8701 80be
00000370: 655a 2ebe bfb4 ecbd 53db 4c3d 6654 d03e
00000380: 1b13 02bf 9c07 573e 3e82 a03d dbdc 67be
00000390: 4bb9 f1be 3326 853e 172c e4be ab87 47be
000003a0: fef5 5bbe 395f 323e 13f2 12bf 00d1 c1be
000003b0: cd3e 5c3e 5003 f13b 5984 103e 697d dc3e
000003c0: a02b e4be e540 9dbe 8883 ba3e 0265 a13c
000003d0: 1c53 a33e 313c 983e 84f1 123f 04f6 ac3e
000003e0: 388c cf3e 5dc4 b43e d10e ff3e c095 9ebe
000003f0: 03b4 e33e 25fd 033f 6f56 c03e 5725 5e3e

weight f4 [1, 256]
0.09629595 -0.014999505 0.002171188 0.007379441 0.035848625 0.07959574 0.004386 0.08424624
0.016652424 0.025501894 -0.026529575 -0.076899946 0.053159907 0.06196835 0.053020712 -0.0010295504
-0.013647626 0.0054634153 0.077414595 0.0024568709 0.02546929 0.008045817 -0.004104731 0.012102883
0.051881656 0.065189995 -0.039766483 0.03068361 0.08849513 0.003456512 -0.004817157 0.024557713
0.056784492 0.00134221 -0.015921365 0.07061669 0.046967607 -0.012977137 -0.018823192 0.021059353
-0.0004819913 0.061555527 -0.026201028 -0.032292023 -0.051861756 0.06320476 0.046462063 0.030478647
0.06460465 0.043015495 0.00431122 0.015152367 0.081919804 0.07728579 -0.05502906 -0.06847165
0.016664758 0.030368628 -0.050967358 -0.024573859 0.046628058 0.0454356 0.0007927095 0.018125433
0.020399906 -0.032753535 0.04786639 0.010517123 -0.043918572 0.098076485 -0.05470386 0.008818589
-0.013458254 0.002271547 0.0385607 0.025332049 0.018504009 -0.016345277 -0.048782542 -0.028254436
0.098849036 0.11157581 -0.014885291 0.08903997 0.089195065 0.029879639 0.030042125 0.01814179
-0.009043751 -0.048812944 0.0027784794 -0.014930918 0.08653729 -0.0146120135 -0.024398966 -0.043039337
0.012011634 0.07088002 0.019050494 0.047531966 -0.012754344 -0.038202222 0.050529648 -0.061176814
0.028156528 -0.06151878 0.009047253 -0.013773316 -0.0254356 -0.00806614 -0.030494606 -0.056785658
0.06797511 -0.006038811 0.0139223095 -0.012614859 0.078060545 0.013222954 -0.02679956 0.053010374
0.014584559 0.039281636 0.019496886 0.05986325 -0.019624215 0.029448764 0.07919088 -0.04875134
-0.016343532 -0.0048320843 -0.018896516 0.04780063 -0.030100271 -0.03657042 -0.00011927227 0.02818137
0.11028671 -0.029069941 0.026047371 -0.0146252075 0.048419382 -0.0027627521 -0.05801603 0.067368835
-0.028738143 0.13494319 0.008378081 0.054982465 0.043652136 0.034523383 0.056819163 0.0015279626
-0.037055902 -0.0127207255 0.02010969 0.022632256 0.05570723 0.080283016 -0.00700147 0.029243192
-0.066428974 0.080988206 -0.06172552 0.08719199 0.09798832 -0.05822082 0.015937468 0.10239306
0.059896816 0.054427005 -0.05520016 0.009791613 -0.03377645 0.07309953 -0.024302963 0.09499063
0.12200694 -0.04072804 0.02243171 0.08069122 0.0065277023 -0.030013174 0.033779 0.0036691697
-1.724968e-05 0.064737946 0.013842268 0.061686516 -0.06458504 0.0423782 -0.046685122 -0.052571442
0.0649847 0.12653726 0.023547506 0.08364035 -0.068647034 -0.06179701 0.040099993 0.02735994
-0.066095635 0.02668145 -0.01820836 0.0021663862 0.0141290715 -0.03783573 -0.07411653 -0.023510542
0.04712876 0.09845757 -0.035851307 0.03451472 0.041496597 0.1248361 0.018705087 -0.02555204
-0.03405129 -0.050192576 -0.022942167 0.054328144 0.030157143 -0.012554491 0.011695676 0.011641591
0.061264783 -0.0056340354 0.03769869 0.05375564 -0.00082626485 0.07762631 0.026783869 0.00969221
-0.016433004 0.06501067 -0.019249877 -0.04523228 0.07026702 0.009111503 0.016116248 -0.055754222
-0.016564485 -0.044864845 0.091555126 0.08688959 0.030618766 0.08987438 0.04168029 0.08037674
-0.0433161 -0.00039418598 0.032500867 0.017584568 -0.04157207 -0.019291922 -0.016346581 -0.011570243
00000000: d036 c53d 7cc0 75bc 7d4a 0e3b 3dcf f13b
00000010: 02d6 123d 1703 a33d 6fb8 8f3b 4b89 ac3d
00000020: aa6a 883c 59e9 d03c 8d54 d9bc b87d 9dbd
00000030: 34be 593d 86d2 7d3d 3f2c 593d fbf1 86ba
00000040: 4b9a 5fbc 7306 b33b 8b8b 9e3d 7403 213b
00000050: f9a4 d03c 9ad2 033c fb80 86bb 2c4b 463c
00000060: dc81 543d 5582 853d 2ee2 22bd 325c fb3c
00000070: ef3c b53d a686 623b 3ed9 9dbb 422d c93c
00000080: db96 683d 18ed af3a 866d 82bc 7c9f 903d
00000090: 1b61 403d 0f9e 54bc 1833 9abc aa84 ac3c
000000a0: c7b3 fcb9 a621 7c3d 8aa3 d6bc a444 04bd
000000b0: fe6c 54bd 7f71 813d 014f 3e3d 5bae f93c
000000c0: 714f 843d 0431 303d 2245 8d3b a241 783c
000000d0: 92c5 a73d 0348 9e3d 2766 61bd dd3a 8cbd
000000e0: 8884 883c a1c7 f83c 26c3 50bd 1e4f c9bc
000000f0: 10fd 3e3d ae1a 3a3d d6cd 4f3a ca7b 943c
00000100: b41d a73c 9228 06bd 8c0f 443d 0350 2c3c
00000110: f6e3 33bd 53dc c83d 2811 60bd d87b 103c
00000120: 0280 5cbc 3cde 143b d3f1 1d3d 2885 cf3c
00000130: b895 973c 88e6 85bc 34d0 47bd d975 e7bc
00000140: 5d71 ca3d dc81 e43d 70e1 73bc 965a b63d
00000150: e7ab b63d 25c6 f43c e71a f63c 179e 943c
00000160: 3e2c 14bc 15f0 47bd 2617 363b cfa0 74bc
00000170: 763a b13d 3a67 6fbc 57e0 c7bc 044a 30bd
00000180: 72cc 443c 8b29 913d c80f 9c3c e1b0 423d
00000190: 99f7 50bc ef79 1cbd 2df8 4e3d 8a94 7abd
000001a0: 85a8 e63c 1efb 7bbd ee3a 143c 79a9 61bc
000001b0: 525e d0bc d827 04bc d3cf f9bc 1498 68bd
000001c0: 8936 8b3d 38e1 c5bb 661a 643c 8eae 4ebc
000001d0: 35de 9f3d 17a5 583c c08a dbbc 6821 593d
000001e0: 13f4 6e3c c8e5 203d efb7 9f3c 2b33 753d
000001f0: f6c2 a0bc 893e f13c d42e a23d 7caf 47bd
00000200: dfe2 85bc 7656 9ebb decc 9abc 98ca 433d
00000210: d894 f6bc ddca 15bd d021 fab8 9edc e63c
00000220: 00de e13d 1624 eebc 4c61 d53c 919e 6fbc
00000230: 6753 463d 4a0f 35bb 37a2 6dbd acf8 893d
00000240: 416c ebbc 8c2e 0a3e 3844 093c 4b35 613d
00000250: 95cc 323d 6468 0d3d 36bb 683d eb45 c83a
00000260: eec7 17bd 976a 50bc 14bd a43c 4867 b93c
00000270: 442d 643d 6c6b a43d 966c e5bb 6b8f ef3c
00000280: ea0b 88bd 25dd a53d e6d3 7cbd b791 b23d
00000290: 1aae c83d f478 6ebd 4b8f 823c 74b3 d13d
000002a0: 5d56 753d daee 5e3d 9019 62bd 006d 203c
000002b0: 2d59 0abd 35b5 953d 0217 c7bc 738a c23d
000002c0: c6de f93d 72d2 26bd b5c2 b73c 7041 a53d
000002d0: 56e6 d53b 30de f5bc d95b 0a3d 7476 703b
000002e0: 68b3 90b7 5495 843d aeca 623c 00ab 7c3d
000002f0: 2945 84bd c394 2d3d e638 3fbd 2755 57bd
00000300: b316 853d fc92 013e b3e6 c03c a24b ab3d
00000310: d196 8cbd dd1e 7dbd e43f 243d f421 e03c
00000320: 265d 87bd 0e93 da3c b329 95bc eef9 0d3b
00000330: 9f7d 673c a3f9 1abd 68ca 97bd 2e99 c0bc
00000340: 160a 413d 1fa4 c93d d2d8 12bd 4f5f 0d3d
00000350: 56f8 293d 12aa ff3d 693b 993c 8352 d1bc
00000360: 5e79 0bbd bb96 4dbd 36f1 bbbc 3087 5e3d
00000370: 1d0c f73c 5ab1 4dbc 389f 3f3c 5fbc 3e3c
00000380: c8f0 7a3d b79d b8bb f169 1a3d e02e 5c3d
00000390: b299 58ba 8bfa 9e3d d869 db3c 13cc 1e3c
000003a0: 829e 86bc 5024 853d ebb1 9dbc 7c45 39bd
000003b0: 28e8 8f3d 6a48 153c 3906 843c 8a5e 64bd
000003c0: 3eb2 87bc 33c4 37bd 4181 bb3d 2bf3 b13d
000003d0: 35d4 fa3c 0f10 b83d f4b8 2a3d 8f9c a43d
000003e0: 396c 31bd bfaa ceb9 a11f 053d 830d 903c
000003f0: 7a47 2abd 180a 9ebc 44e9 85bc 1e91 3dbc
