Pendulum_Agent_model.pth (torch, 8028 bytes, 3 tensors)

weight f4 [256, 3]
-0.2754204 0.14728552 -0.42175874 -0.5412881 0.32586005 0.24861328 -0.4680985 -0.28594753
0.46944255 -0.30281442 0.5107381 0.18440467 0.14018953 0.26399896 0.51341504 0.27861363
-0.3958309 0.3416078 0.5750333 0.08278279 -0.20188516 0.5601666 -0.22521831 0.4671731
-0.320883 0.49791652 0.2330943 0.14889906 0.019633805 0.31356132 -0.14723583 -0.19037993
0.4499724 0.0042961594 0.47941646 0.17877911 -0.0106705045 -0.41188407 0.47882944 0.24796051
0.57588094 0.3166425 -0.037022553 -0.012151779 0.5632313 -0.41912127 0.043221924 0.4534814
-0.3473391 0.29017946 -0.47411743 -0.07013216 -0.357176 0.27971157 0.41416365 0.4252577
0.29118937 0.30385342 -0.24073012 -0.065941215 0.18527481 0.10188256 -0.10287283 0.31473148
0.083698876 0.43702778 0.54878145 -0.22745948 -0.2173018 -0.5492383 0.5117788 -0.062687345
0.41364333 -0.2917412 -0.09077751 0.15748338 -0.098036595 -0.3980195 0.42663458 0.0047084847
-0.49237695 -0.29418355 0.3114793 0.035638485 0.18197936 0.3533805 -0.32457557 -0.4907629
-0.5280958 0.22350693 -0.46555874 0.34244326 0.24682668 -0.045416992 0.055947453 -0.23118697
-0.3563436 -0.42825478 -0.42674652 -0.18590473 0.2384118 0.08992484 0.33546838 -0.020853523
0.35221985 0.0047212085 0.5238531 0.46136364 0.08811505 -0.36091447 -0.0021607492 0.10093079
-0.38676912 0.544965 0.45116183 0.38309735 -0.18089448 -0.08408851 -0.32311445 -0.3113478
-0.55294776 -0.5457592 -0.54944205 0.28956926 -0.44639927 -0.54672 -0.4309862 0.4484829
-0.17019364 -0.5524209 0.11591889 0.038658556 -0.30245256 -0.058320034 -0.3642481 0.40045553
0.55069196 0.30913383 -0.22522411 -0.1277504 0.22329119 -0.38137496 -0.23902373 -0.26151285
-0.2969078 0.051265206 -0.19664288 0.45970267 0.24389428 0.34076932 -0.2935402 0.07285054
0.45048532 -0.41281042 -0.49231791 0.04958649 0.4826852 -0.26066378 0.45590064 -0.48577932
0.45706767 0.34127238 0.44011217 -0.54962015 -0.16169386 -0.07011676 -0.5185856 0.13984752
0.16659978 -0.12451849 -0.15540035 0.19176674 0.49497864 0.14180684 -0.50764716 -0.42754462
-0.11995462 -0.40635422 -0.4397 0.0047805086 0.04656968 -0.45845556 -0.0585576 0.0063619553
-0.038478486 0.056302022 0.48491022 -0.40047088 -0.5472621 -0.40499815 0.07321026 -0.32999274
0.49953452 0.2532361 0.2931948 0.53007066 0.18627658 0.35460868 -0.21969722 -0.30920336
-0.106633306 0.37765232 -0.020589802 0.5577876 -0.36437428 0.39761677 0.13652346 0.45289913
-0.028475158 0.036143675 0.32230335 -0.32783297 -0.18181996 -0.016552355 0.06156065 0.537477
0.3171984 0.46843454 -0.37682334 0.18598191 0.4286764 -0.23903528 0.32923633 -0.35875884
0.39137942 0.5701447 0.17080149 -0.3992011 -0.5718267 0.42938522 -0.5555614 0.04680294
0.36303413 0.36529866 -0.17984852 -0.032679547 -0.46628213 -0.3985412 0.50056463 -0.483672
-0.5635039 0.2628747 0.3726093 -0.48512408 -0.42906317 -0.07519621 -0.14832418 -0.30587775
-0.30743605 0.086667426 -0.5108417 -0.31032968 0.39120796 0.2380393 0.41264775 0.50141424
00000000: e703 8dbe 04d2 163e c3f0 d7be db91 0abf
00000010: 21d7 a63e 7b94 7e3e 9baa efbe b767 92be
00000020: c65a f03e 7e0a 9bbe bbbf 023f 94d4 3c3e
00000030: d88d 0f3e df2a 873e 2b6f 033f 72a6 8e3e
00000040: 59aa cabe 38e7 ae3e 6235 133f 068a a93d
00000050: fcba 4ebe 1467 0f3f a19f 66be 5031 ef3e
00000060: c74a a4be eaee fe3e 46b0 6e3e ff78 183e
00000070: 13d7 a03c 1c8b a03e fdc4 16be f5f2 42be
00000080: c862 e63e ccc6 8c3b 1376 f53e df11 373e
00000090: 57d3 2ebc 78e2 d2be 2229 f53e 5ce9 7d3e
000000a0: ef6c 133f f71e a23e f6a4 17bd 4118 47bc
000000b0: ed2f 103f 1097 d6be 7909 313d b72e e83e
000000c0: 6ed6 b1be 6792 943e 85bf f2be 73a1 8fbd
000000d0: c6df b6be 5b36 8f3e 420d d43e 61bb d93e
000000e0: c616 953e ad92 9b3e f581 76be 300c 87bd
000000f0: aeb8 3d3e cea7 d03d feae d2bd 7c24 a13e
00000100: 516a ab3d 1bc2 df3e f17c 0c3f 23eb 68be
00000110: 5d84 5ebe e29a 0cbf ef03 033f 3962 80bd
00000120: 0fc9 d33e 1a5f 95be 8fe9 b9bd 5343 213e
00000130: 69c7 c8bd 36c9 cbbe d96f da3e a249 9a3b
00000140: d518 fcbe 3a9f 96be 377a 9f3e a9f9 113d
00000150: cc58 3a3e 4aee b43e c52e a6be 4645 fbbe
00000160: 4931 07bf 00df 643e b75d eebe b954 af3e
00000170: 22c0 7c3e 2b07 3abd 2829 653d 47bc 6cbe
00000180: ab72 b6be 3644 dbbe 857e dabe cf5d 3ebe
00000190: 3922 743e 842a b83d 83c2 ab3e 02d5 aabc
000001a0: 2956 b43e 5eb4 9a3b 3d1b 063f db37 ec3e
000001b0: aa75 b43d c8c9 b8be 5b9b 0dbb cdb4 ce3d
000001c0: 9a06 c6be d482 0b3f affe e63e 5625 c43e
000001d0: 673c 39be 9936 acbd 426f a5be fb68 9fbe
000001e0: fc8d 0dbf e0b6 0bbf 3ca8 0cbf 6c42 943e
000001f0: 728e e4be d8f5 0bbf 39aa dcbe 8d9f e53e
00000200: 3e47 2ebe 756b 0dbf e266 ed3d 6f58 1e3d
00000210: 10db 9abe fde0 6ebd ba7e babe 8208 cd3e
00000220: 26fa 0c3f ca46 9e3e 26a1 66be 00d1 02be
00000230: 72a6 643e 9443 c3be a3c2 74be 03e5 85be
00000240: 4d04 98be 77fb 513d c05c 49be 265e eb3e
00000250: 6cbf 793e 5179 ae3e e74a 96be aa32 953d
00000260: 03a6 e63e e35b d3be 1811 fcbe 341b 4b3d
00000270: 8422 f73e b975 85be cf6b e93e 11b8 f8be
00000280: c604 ea3e 41bb ae3e 6256 e13e e8b3 0cbf
00000290: 1393 25be 6099 8fbd 07c2 04bf 3034 0f3e
000002a0: 2299 2a3e 8d03 ffbd 4521 1fbe 805e 443e
000002b0: d76d fd3e d035 113e 2af5 01bf 21e7 dabe
000002c0: c5aa f5bd a90d d0be 5c20 e1be d0a5 9c3b
000002d0: d9bf 3e3d b0ba eabe 18da 6fbd f377 d03b
000002e0: 9e9b 1dbd f39c 663d 2746 f83e 850a cdbe
000002f0: 5e19 0cbf eb5b cfbe 43ef 953d cff4 a8be
00000300: fdc2 ff3e 29a8 813e a11d 963e b6b2 073f
00000310: 4abf 3e3e 458f b53e 4ff8 60be e74f 9ebe
00000320: 9062 dabd a55b c13e f2ab a8bc 2bcb 0e3f
00000330: 448f babe 6d94 cb3e cecc 0b3e 65e2 e73e
00000340: bc44 e9bc 640b 143d f204 a53e b9d9 a7be
00000350: 032f 3abe ce98 87bc 0527 7c3d 1898 093f
00000360: d467 a23e a7d6 ef3e fdee c0be 0b72 3e3e
00000370: 797b db3e aac5 74be aa91 a83e 3daf b7be
00000380: e262 c83e 01f5 113f 96e6 2e3e 1664 ccbe
00000390: 3c63 12bf 61d8 db3e 4639 0ebf 71b4 3f3d
000003a0: 9cdf b93e 6d08 bb3e 362a 38be fdda 05bd
000003b0: 88bc eebe 980d ccbe 0125 003f dba3 f7be
000003c0: cb41 10bf 8397 863e a5c6 be3e 2f62 f8be
000003d0: 2bae dbbe 7800 9abd 4be2 17be 029c 9cbe
000003e0: 4268 9dbe b17e b13d 86c6 02bf 88e3 9ebe
000003f0: 694c c83e 93c0 733e 9146 d33e af5c 003f

bias f4 [256]
0.19496725 -0.535925 0.32351974 0.5612098 -0.47653806 -0.39104882 0.52050465 0.040498093
0.5714016 0.07636782 0.29221252 0.2406646 0.071003236 -0.32334664 -0.4497593 -0.04146322
-0.325396 0.15944563 0.4661086 -0.3340065 0.57643586 -0.3198443 -0.12399282 0.0078077326
-0.2531958 -0.44324708 -0.5661613 -0.120327406 -0.42192012 -0.38661966 -0.31260878 -0.50751394
-0.13823311 0.24008611 0.35682797 -0.07283139 0.46373215 -0.056800973 0.5427688 0.05843175
0.56279606 0.538623 0.2144215 0.19671392 -0.13064982 -0.022907285 -0.26650557 0.4438162
-0.0235037 -0.017133666 0.09135281 0.57297856 0.24099606 0.44469577 -0.47336644 0.3153542
0.54658437 -0.31182203 0.57204854 -0.2050964 -0.25009573 -0.49866268 0.47882405 -0.0012919407
0.036918476 0.49473312 -0.1356579 -0.5450014 -0.28142983 -0.1597049 -0.5739716 -0.284615
-0.43705353 -0.15914784 -0.52733743 0.49039125 0.16697954 -0.2494334 0.025537517 0.1926592
-0.10313002 -0.15338132 0.3166135 0.23282985 0.18214636 0.005990453 -0.014878599 0.41921756
-0.23812567 -0.21985468 -0.090492524 0.028731214 0.151339 -0.039908584 0.014248749 -0.19434215
-0.09904962 0.4352117 0.4439214 0.33399194 -0.27768677 0.36852485 0.12966272 -0.029056296
0.3021794 0.49267223 -0.3823693 -0.040344205 0.3400989 0.35155195 0.36212534 0.36208466
0.2934766 0.33193302 -0.2318284 -0.36723298 -0.15331033 -0.17848162 -0.26004583 0.49764374
0.15360884 -0.46892664 0.5146699 -0.45176104 -0.16164106 0.23985945 0.4725471 -0.13745782
0.022738174 -0.5732799 -0.1419708 -0.5520795 -0.545862 -0.5052997 0.33659822 0.004052617
0.11768587 -0.09371302 -0.48772052 0.42961603 0.37936395 0.33729443 -0.5532448 -0.19298917
0.1992201 -0.54781365 0.2766013 -0.5065241 -0.48657084 0.31430197 -0.5717754 -0.066954404
0.08949596 -0.107157074 -0.17219335 -0.54039365 0.5227787 -0.5627417 0.29283464 0.30532312
-0.39622408 0.19590527 0.027801298 -0.42801523 -0.3455389 -0.4879371 -0.17512655 -0.083284885
-0.1316372 -0.28664297 -0.17450404 -0.1401808 -0.5279821 0.16861165 0.35939324 0.33180878
-0.5551082 0.16533098 0.2917559 0.00031087626 0.48307872 0.018504309 -0.55948895 -0.062417857
-0.36281523 0.018855037 0.41972893 -0.5301966 -0.24339464 0.15292174 -0.26999825 -0.40153068
0.0322956 0.054831363 0.015612004 0.26743707 0.16853465 -0.0389476 -0.37167895 -0.35124406
-0.060277894 -0.16330324 -0.3253907 -0.3344716 -0.2901857 0.48830876 -0.22089149 -0.11246581
0.56197375 0.48001245 0.069238074 0.38818303 -0.5246387 0.053147182 -0.53590906 0.44781375
0.32956755 -0.40204987 -0.12825508 -0.31375703 -0.47398454 -0.1399546 -0.3569409 0.2578073
-0.29717445 -0.1751789 0.2057691 -0.48004565 0.3908647 0.25382346 0.08621923 -0.36101484
0.5531198 -0.23764111 -0.33233267 0.4188585 -0.28183305 0.077887274 0.07920356 -0.13435557
0.0065368884 0.49317348 0.090695396 0.38648 -0.2785211 0.5763001 0.35508648 0.16025788
0.03613511 0.3331842 0.3231493 -0.2322043 -0.46540374 0.47140864 -0.51897496 0.16116694
00000000: 7fa5 473e 6132 09bf 61a4 a53e 72ab 0f3f
00000010: ccfc f3be 8d37 c8be cb3f 053f 54e1 253d
00000020: 6047 123f bb66 9c3d e19c 953e c870 763e
00000030: 256a 913d b18d a5be da46 e6be 56d5 29bd
00000040: 4e9a a6be b745 233e c9a5 ee3e e602 abbe
00000050: 4d91 133f a2c2 a3be f3ef fdbd 02d8 ff3b
00000060: e1a2 81be 48f1 e2be f2ef 10bf 376e f6bd
00000070: ea05 d8be 03f3 c5be 420e a0be 6fec 01bf
00000080: fb8c 0dbe 22d9 753e 28b2 b63e a028 95bd
00000090: 4d6e ed3e 23a8 68bd e5f2 0a3f 2156 6f3d
000000a0: 6713 103f 32e3 093f 4f91 5b3e 606f 493e
000000b0: 11c9 05be 0fa8 bbbc 6b73 88be e13b e33e
000000c0: d58a c0bc e75b 8cbc 2f17 bb3d b9ae 123f
000000d0: acc7 763e 2aaf e33e 165d f2be 1b76 a13e
000000e0: f4ec 0b3f 23a7 9fbe c671 123f ca04 52be
000000f0: 8c0c 80be b750 ffbe 6d28 f53e 5656 a9ba
00000100: d437 173d a94d fd3e e8e9 0abe 3685 0bbf
00000110: 9217 90be ae89 23be ceef 12bf 0fb9 91be
00000120: 7bc5 dfbe a7f7 22be 96ff 06bf 9014 fb3e
00000130: affc 2a3e 786b 7fbe 0e34 d13c 7448 453e
00000140: d535 d3bd fe0f 1dbe 2a1b a23e f36a 6e3e
00000150: 9384 3a3e 904b c43b 5ec5 73bc afa3 d63e
00000160: 37d7 73be 9621 61be 2554 b9bd b95d eb3c
00000170: 9cf8 1a3e 2f77 23bd 9673 693c a101 47be
00000180: 87da cabd 11d4 de3e aa49 e33e fe00 ab3e
00000190: f62c 8ebe 4aaf bc3e 4ec6 043e 7807 eebc
000001a0: 42b7 9a3e 893f fc3e e9c5 c3be f73f 25bd
000001b0: 7121 ae3e 9efe b33e 7e68 b93e 2963 b93e
000001c0: 9142 963e 20f3 a93e 6d64 6dbe f605 bcbe
000001d0: 62fd 1cbe e3c3 36be ba24 85be 29cb fe3e
000001e0: a34b 1d3e 2717 f0be 68c1 033f 394d e7be
000001f0: 3c85 25be b79d 753e b2f1 f13e bec1 0cbe
00000200: 6845 ba3c 79c2 12bf cb60 11be 1555 0dbf
00000210: 9dbd 0bbf 525b 01bf 9a56 ac3e d1cb 843b
00000220: 4a05 f13d 9dec bfbd 81b6 f9be a2f6 db3e
00000230: fe3b c23e dbb1 ac3e 74a1 0dbf f49e 45be
00000240: 5b00 4c3e 843d 0cbf b09e 8d3e 90ab 01bf
00000250: d01f f9be 30ec a03e df5f 12bf 641f 89bd
00000260: a849 b73d 2b75 dbbd 7453 30be 3d57 0abf
00000270: d3d4 053f d70f 10bf 6cee 953e 5053 9c3e
00000280: e2dd cabe 649b 483e 8cbf e33c d024 dbbe
00000290: 7aea b0be e4d2 f9be 6054 33be 4491 aabd
000002a0: e7cb 06be dec2 92be 30b1 32be 8e8b 0fbe
000002b0: d629 07bf 88a8 2c3e 6402 b83e d7e2 a93e
000002c0: 921b 0ebf 864c 293e 0861 953e 1bfd a239
000002d0: 1856 f73e 5996 973c ab3a 0fbf dea9 7fbd
000002e0: ebc2 b9be e175 9a3c b6e6 d63e f7ba 07bf
000002f0: 723c 79be 8497 1c3e 363d 8abe 6e95 cdbe
00000300: 6448 043d da96 603d 7ec9 7f3c 83ed 883e
00000310: 5994 2c3e 8587 1fbd b44c bebe 43d6 b3be
00000320: f4e5 76bd f738 27be 9c99 a6be dd3f abbe
00000330: 3893 94be 9b03 fa3e 6131 62be 7954 e6bd
00000340: 83dd 0f3f 31c4 f53e b1cc 8d3d edbf c63e
00000350: b94e 06bf dcb0 593d 5631 09bf d847 e53e
00000360: 14bd a83e 7bd9 cdbe 4d55 03be c3a4 a0be
00000370: 1aae f2be 4250 0fbe f5c0 b6be 52ff 833e
00000380: 4027 98be 1962 33be 23b5 523e 8bc8 f5be
00000390: 6b1f c83e 26f5 813e b593 b03d f0d6 b8be
000003a0: 4299 0d3f 3158 73be 8227 aabe 9f74 d63e
000003b0: 6c4c 90be 5d83 9f3d 7a35 a23d 8294 09be
000003c0: 6533 d63b 3c81 fc3e 82be b93d b5e0 c53e
000003d0: 519a 8ebe 6788 133f e5cd b53e a41a 243e
000003e0: 6902 143d 1f97 aa3e d373 a53e f7c6 6dbe
000003f0: 6649 eebe 795c f13e 8bdb 04bf f208 253e

weight f4 [1, 256]
-0.006286895 0.058731273 -0.03237352 0.0017645657 -0.037872095 -0.0447993 0.030530805 0.003826643
-0.0048241448 -0.0240811 0.037342735 0.00951353 0.022545613 -0.018723244 0.070655495 -0.027835477
-0.04328165 0.01508325 0.0015376256 0.0017304827 -0.0021597692 -0.006779749 0.008913907 0.077289484
-0.05023044 0.041422725 0.06399598 -0.006494617 -0.00010281101 -0.008543271 -0.024029478 0.04056099
0.061905663 -0.025005914 -0.013683116 -0.016296057 -0.029367754 0.031393584 0.06938398 0.058749255
0.008654465 0.008628082 0.07347521 0.031113435 0.040825702 -0.055782855 -0.03507302 -0.024059296
0.049848218 0.0314966 0.052328896 0.0024296432 0.05265668 0.07793501 0.039820462 -0.058935557
-0.024724022 0.019192694 -0.034216225 -0.030831357 -0.05366262 -0.03411673 0.017865708 0.046520315
-0.045704678 0.0665066 0.050461642 -0.0048737447 0.0499247 -0.0083981855 0.038218126 0.06473583
0.07076639 -0.021487681 0.06013843 -0.02115925 0.013790837 0.035332397 -0.011109377 0.023215415
0.077369556 -0.035541676 0.030360064 0.057934776 0.0143500315 0.009971502 0.0010208254 0.062848605
0.0361554 0.040764213 0.06679716 0.07468395 0.055006403 0.013484081 0.019710906 0.05773176
-0.03620496 0.044787776 0.062035657 0.07716231 0.028745677 -0.04158403 0.051581178 0.038860023
-0.011226925 0.022177748 0.04817232 -0.02331463 0.006367212 0.043104734 -0.0006118906 0.07418119
0.04538675 -0.029730882 -0.017705789 -0.0016846452 0.014493983 0.041303363 -0.028936975 0.060219698
-0.03165427 0.02948683 -0.026053082 0.05215065 0.008398179 0.026525486 0.00486628 0.049105722
0.055298865 0.0008216468 -0.025352355 0.036773503 0.04366207 0.05935712 0.070549995 -0.02675373
-0.047251884 -0.013155706 0.02803971 -0.033772256 0.06250405 0.0652705 0.013498919 -0.009686183
0.015819035 0.002480344 0.022212602 0.054621883 -0.046586823 0.076217666 0.055829428 -0.004399739
0.06982443 -0.004461757 0.00022985876 -0.04070616 0.049123 -0.008272586 0.011225048 -0.0502075
0.03356342 0.04197028 0.060114093 0.052951038 0.07073919 -0.03277687 -0.0097629195 0.016884927
-0.018094778 0.007982232 -0.04949097 0.010083434 0.043731604 -0.022237025 0.043850265 0.00516199
0.011313514 -0.039773736 0.07024764 0.06308085 0.04280717 0.040258836 -0.026004724 0.0590144
0.02843848 -0.004375099 -0.010098559 0.013892476 0.05883266 0.0028909699 -0.04047732 0.052375868
0.07489455 0.038490146 -0.036798313 -0.0075407154 -0.0045698304 -0.031983234 0.044196155 0.032989476
0.017761655 0.028322896 0.044647656 0.08438952 0.06025814 0.024555292 0.052278288 0.05915751
0.06476228 -0.041479427 0.058525115 -0.041857745 0.05254543 0.06110498 0.0026399533 -0.007957389
0.06856704 -0.019994223 -0.032296486 0.02569417 -0.04799867 0.0147273345 -0.0339166 -0.026007954
-0.03441418 -0.02509379 0.049216952 -0.0076342104 0.06245851 0.031909876 0.043925487 0.02176288
0.06616877 0.009580303 -0.0069703483 0.04209751 -0.05239843 0.02206547 -0.042207874 0.028633675
0.031722344 0.083299816 0.010616451 -0.0015129502 0.034947235 0.020259421 0.013344312 -0.008575586
-0.006894735 -0.02802475 0.06473361 0.042600833 -0.0009581484 0.038538665 0.04414132 0.054074075
00000000: 4c02 cebb 3490 703d 199a 04bd 0049 e73a
00000010: c51f 1bbd 797f 37bd bd1b fa3c 6bc8 7a3b
00000020: dc13 9ebb ba45 c5bc b2f4 183d a3de 1b3c
00000030: 94b1 b83c 7d61 99bc d4b3 903d 3a07 e4bc
00000040: 1948 31bd bc1f 773c 278a c93a 5dd1 e23a
00000050: ea8a 0dbb a828 debb a30b 123c f349 9e3d
00000060: 6fbe 4dbd e0aa 293d 5310 833d ccd0 d4bb
00000070: 3e9c d7b8 13f9 0bbc 78d9 c4bc 4823 263d
00000080: cb90 7d3d 34d9 ccbc 262f 60bc 4f7f 85bc
00000090: a594 f0bc 8f96 003d 3019 8e3d 0fa3 703d
000000a0: 75cb 0d3c cd5c 0d3c 2c7a 963d 9ae1 fe3c
000000b0: da38 273d 907c 64bd baa8 0fbd 0018 c5bc
000000c0: a52d 4c3d 9402 013d d356 563d a63a 1f3b
000000d0: 88ae 573d 649c 9f3d c81a 233d 6966 71bd
000000e0: 088a cabc ff39 9d3c 5026 0cbd 0b92 fcbc
000000f0: 56cd 5bbd fcbd 0bbd 1b5b 923c 168c 3e3d
00000100: d434 3bbd 9d34 883d deb0 4e3d efb3 9fbb
00000110: d87d 4c3d 8b98 09bc 9c8a 1c3d 3894 843d
00000120: f8ed 903d ef06 b0bc b753 763d 2a56 adbc
00000130: f6f2 613c b4b8 103d 1b04 36bc 412e be3c
00000140: ee73 9e3d 2694 11bd abb5 f83c 044d 6d3d
00000150: 651c 6b3c 835f 233c 37cd 853a c5b6 803d
00000160: af17 143d 60f8 263d f3cc 883d e6f3 983d
00000170: 654e 613d 56ec 5c3c c478 a13c 2378 6c3d
00000180: a74b 14bd 6373 373d 1a19 7e3d 4607 9e3d
00000190: 0e7c eb3c 0454 2abd c946 533d b02b 1f3d
000001a0: 23f1 37bc 1cae b53c 5750 453d 53fe bebc
000001b0: 0ca4 d03b 978e 303d 4867 20ba 4fec 973d
000001c0: 75e7 393d 2e8e f3bc bb0b 91bc 50cf dcba
000001d0: 2c78 6d3c b72d 293d 3c0d edbc eea8 763d
000001e0: e8a7 01bd 5d8e f13c 466d d5bc ec9b 553d
000001f0: 8498 093c fa4b d93c 5175 9f3b 1523 493d
00000200: 1081 623d c963 573a beaf cfbc d09f 163d
00000210: 00d7 323d 7420 733d 847c 903d a32a dbbc
00000220: 318b 41bd 088b 57bc 89b3 e53c c754 0abd
00000230: 2002 803d 8aac 853d 922a 5d3c ccb2 1ebc
00000240: ec96 813c 448d 223b 34f7 b53c 32bb 5f3d
00000250: d3d1 3ebd 0218 9c3d 66ad 643d b02b 90bb
00000260: 1c00 8f3d ee33 92bb 3e06 7139 81bb 26bd
00000270: 3335 493d be89 07bc 44e9 373c 61a6 4dbd
00000280: cc79 093d 07e9 2b3d 323a 763d 30e3 583d
00000290: b5df 903d 0a41 06bd a7f4 1fbc 4252 8a3c
000002a0: 803b 94bc e8c7 023c 0bb7 4abd fd34 253c
000002b0: e91f 333d 6c2a b6bc 569c 333d e925 a93b
000002c0: 515c 393c c9e9 22bd ffdd 8f3d 8830 813d
000002d0: 9256 2f3d 73e6 243d dc07 d5bc 15b9 713d
000002e0: d1f7 e83c fe5c 8fbb 6d74 25bc 459d 633c
000002f0: 84fa 703d 6d76 3d3b 8ccb 25bd 1488 563d
00000300: 5062 993d d8a7 1d3d d4b9 16bd 1b18 f7bb
00000310: 84be 95bb da00 03bd 0707 353d f91f 073d
00000320: e480 913c 6b05 e83c 76e0 363d 6ad4 ac3d
00000330: 3dd1 763d 2e28 c93c c221 563d 254f 723d
00000340: 16a2 843d 55e6 29bd 08b8 6f3d 0773 2bbd
00000350: e039 573d 3749 7a3d 1103 2d3b b55f 02bc
00000360: e06c 8c3d edca a3bc 5249 04bd 947c d23c
00000370: 419a 44bd eb4a 713c 22ec 0abd a20e d5bc
00000380: e2f5 0cbd 7e91 cdbc b797 493d 6628 fabb
00000390: 7fd4 7f3d eeb3 023d 36eb 333d 1148 b23c
000003a0: 7e83 873d b4f6 1c3c 8567 e4bb 706e 2c3d
000003b0: bc9f 56bd a5c2 b43c 2ae2 2cbd 2b91 ea3c
000003c0: 4aef 013d 1899 aa3d 9ff0 2d3c 2f4e c6ba
000003d0: d524 0f3d 16f7 a53c 1aa2 5a3c 9d80 0cbc
000003e0: 3bed e1bb 2994 e5bc 0e93 843d 367e 2e3d
000003f0: 402c 7bba b8da 1d3d 87cd 343d c77c 5d3d
